…
  1 11 10  3  1  6  3  3  7  3%2C  5 11  3  8  1  5 11  7  7  1  8  5 11 11 10 -1  2 11  3  3  8  8  1 10%2C 10  2  7  2  2  7 11  5 11  7  9  7 11  6  8  5  2  2  1  5  5  8  7  4%2C  9 11 11 10  6  7  5 11 10 11 11  7  5  3 10  7  7  8  6  8 11  9  2 11%2C  8 11 11  6  8  2  0  7  8  2  3  6 11  7  5  7%5D" isContainer="True" shape="(1777,)" />
</xml>
Model: "sequential"
_________________________________________________________________
 Layer (type)                Output Shape              Param #
=================================================================
 embedding (Embedding)       (None, 5000, 32)          160000
 bidirectional (Bidirection  (None, 5000, 256)         164864
 al)
 bidirectional_1 (Bidirecti  (None, 5000, 128)         164352
 onal)
 global_max_pooling1d (Glob  (None, 128)               0
 alMaxPooling1D)
 dense (Dense)               (None, 1024)              132096
 dropout (Dropout)           (None, 1024)              0
 dense_1 (Dense)             (None, 512)               524800
 dropout_1 (Dropout)         (None, 512)               0
 dense_2 (Dense)             (None, 256)               131328
 dropout_2 (Dropout)         (None, 256)               0
 dense_3 (Dense)             (None, 128)               32896
 dropout_3 (Dropout)         (None, 128)               0
 dense_4 (Dense)             (None, 64)                8256
 dropout_4 (Dropout)         (None, 64)                0
 dense_5 (Dense)             (None, 23)                1495
=================================================================
Total params: 1320087 (5.04 MB)
Trainable params: 1320087 (5.04 MB)
Non-trainable params: 0 (0.00 Byte)
_________________________________________________________________
<xml><var name="_dummy_ipython_val"  />
<var name="_dummy_special_var"  />
<var name="TEST_FILE_PATH" type="str" qualifier="builtins" value="test_data.csv" />
<var name="TRAIN_FILE_PATH" type="str" qualifier="builtins" value="train_data.csv" />
…
